src/pretrained_encoder-weights.npy (npy, 1280 bytes, 1 tensors)

array f4 [3, 3, 32]
000000 22 d9 39 3d 40 c6 9c bc 5c cd 04 3d 3f fb 5b bd
       0.04537309 -0.019137502 0.03242241 -0.053706404
000010 63 f9 d7 3d 14 cb 9e bd 26 7c 0b 3c 30 5f 94 bd
       0.105456136 -0.07753578 0.008513486 -0.07244718
000020 e2 d3 7e 3d 91 a2 a7 bc e9 57 17 bd 0b cb 20 3d
       0.062213786 -0.02046326 -0.036949072 0.039256137
000030 30 65 f2 3d 0d 61 d0 3c 35 2b d3 bd ee 91 bf 3d
       0.11835706 0.025436902 -0.103109755 0.09354006
000040 70 92 cd 3d f4 c8 59 bd a1 53 9a bd 86 41 f9 3c
       0.10037696 -0.05317016 -0.07535482 0.030426752
000050 52 60 b4 ba de 79 8f 3d 55 16 3a bd f9 69 c6 3d
       -0.0013761616 0.07005666 -0.045431454 0.096881814
000060 35 39 40 3c eb 67 67 bc b0 54 88 bd 26 fc 16 3d
       0.011732389 -0.014123897 -0.06656778 0.03686156
000070 fb 6e ca bd e9 23 c2 3d 8e 87 c9 bd 75 ef 04 3c
       -0.09884449 0.094795056 -0.09840308 0.008113732
000080 18 dc b6 3d aa c6 99 3d d1 0c ca 3d 34 9b 1a 3d
       0.08928698 0.07508595 0.09865726 0.03774567
000090 ab 24 d2 3d 8a c0 02 bd e0 14 d4 3d 24 cc f4 bd
       0.102609 -0.0319219 0.10355544 -0.11952999
0000a0 29 c7 43 3d 8f 5e fe bd b2 ad cb 3d 3c 1d fd 3d
       0.047797356 -0.12420379 0.09945239 0.12359092
0000b0 3d f2 88 bd f3 71 d7 bc 89 66 ab 3d 84 c7 d5 3d
       -0.06686828 -0.026299452 0.083691664 0.10438445
0000c0 cc 5d 20 3c e4 4b 01 3e 78 aa 84 3d 15 6c d3 bd
       0.009787988 0.12626606 0.06477827 -0.103233494
0000d0 f4 b2 08 be 6c 61 7f 3d 46 03 4b bd 11 b8 d0 bb
       -0.13349515 0.062348768 -0.04956367 -0.0063695987
0000e0 a6 06 dd 3d 75 25 a5 bd d9 57 9e 3d f4 b2 c9 bd
       0.10792284 -0.08063785 0.07731599 -0.09848586
0000f0 98 c2 4f 3d 94 c4 97 bd 0f 26 10 3e 20 31 ed bd
       0.05072269 -0.07410541 0.14077018 -0.115816355
000100 4c bf 29 3d a4 ea ff bd 2d 8b f6 3d 92 ab 41 3c
       0.0414422 -0.12495926 0.120382644 0.011820691
000110 9a c5 0f bb 82 bf 9d ba 8f 99 f7 3d d9 6c fe bd
       -0.0021937848 -0.0012035223 0.12089836 -0.12423105
000120 3d 0e 04 3e 1f 85 c8 bd ab f7 03 3e 7e 6a f3 bd
       0.12896056 -0.09791016 0.12887447 -0.11885546
000130 44 c8 01 3d f8 37 16 3c c8 59 f1 bd ae e4 54 bd
       0.03168513 0.009168617 -0.117847025 -0.0519759
000140 bf 33 a0 bd 62 8c 88 3c 30 e6 59 bd 96 b2 b4 bd
       -0.0782237 0.016668502 -0.05319804 -0.08823125
000150 2b 9b 5e bd 3b a5 a4 bd 06 d6 11 3e 82 64 db bd
       -0.0543472 -0.08039328 0.142418 -0.1071253
000160 e1 12 1b 3d a1 80 bc 3c 3e 3d 08 be 6c fb 9b 3d
       0.0378598 0.023010554 -0.13304612 0.07616314
000170 63 9c 2c 3c 14 02 f9 bd 21 8b 9d 3d 1a c7 9b bc
       0.010535332 -0.121585995 0.07692552 -0.019015837
000180 5f 6e 8b 3d 7c 9e 0e be 37 89 eb 3d 8e 73 c0 bc
       0.06808161 -0.13927644 0.11500781 -0.0234926
000190 19 a5 55 3c a2 5c b6 bd d3 2f 9a bd 77 bb b8 bd
       0.013039851 -0.08904387 -0.07528653 -0.09020131
0001a0 8e 21 0a be 9d 49 ac 3d 02 22 c8 bd ab 3f ac bd
       -0.13489363 0.08412478 -0.097721115 -0.08410581
0001b0 7b e7 05 3e 46 86 0a 3e 76 ea a3 bd 61 61 56 bb
       0.13076584 0.13527784 -0.08003704 -0.003271185
0001c0 5a 71 af bd 44 88 05 bd a9 fa 00 3e 4a 94 24 bd
       -0.08566542 -0.032600656 0.1259562 -0.040180482
0001d0 74 f5 e5 3d 27 67 01 3e 8e b9 2b bc 61 5f 79 3d
       0.11228457 0.12637006 -0.010481251 0.060881976
0001e0 7a d8 2b bd fa bb d8 bd 1c b4 b1 bd 58 69 63 3d
       -0.041954495 -0.10582729 -0.08676931 0.055520386
0001f0 0b 1f ff 3c 49 c1 f9 bb a2 c8 ad 3d 72 6f ca 3d
       0.031142732 -0.0076219183 0.08485533 0.09884538
000200 ba de 8b bd aa 49 b5 bd c3 10 af bd f0 87 a7 bd
       -0.06829591 -0.08851941 -0.08548119 -0.08180225
000210 b0 9c a8 bd be ae d4 bd 5a 58 9a bd af 68 cf bc
       -0.08233011 -0.10384892 -0.07536383 -0.025318472
000220 c9 e6 92 3d 16 d7 08 bc d9 44 13 3e 01 e9 3f 3d
       0.07172925 -0.008352062 0.14381732 0.04685307
000230 d4 d1 d3 bc 3e 01 85 3c 26 e3 af bb 04 df 02 3d
       -0.02585689 0.016235944 -0.0053676544 0.031950966
000240 7d fa aa 3d db 24 01 be b9 f0 83 bd 9c 88 e9 bc
       0.08348558 -0.12611715 -0.064423986 -0.028507523
000250 9d 42 04 bd 02 bd b3 3c 37 37 93 bc f3 1d fa bd
       -0.03229009 0.021940712 -0.017970664 -0.122127436
000260 60 6d 05 be 5a d4 fe ba 0f b9 bb bb 3a a9 22 3d
       -0.13030005 -0.0019441948 -0.005728848 0.03971217
000270 7f f1 42 3d a0 47 49 bd 31 7b 13 3e c6 92 96 3c
       0.04759359 -0.049140573 0.14402463 0.018380534
000280 6c 51 13 be 88 40 ed 3c e0 e7 9e bd 70 75 80 3c
       -0.14386529 0.028961435 -0.077590704 0.015680999
000290 55 80 02 3e 02 a3 0b be 1e bb e6 3c a5 74 58 3c
       0.12744267 -0.13636401 0.028165396 0.013211404
0002a0 42 14 86 bd b8 cb 25 bc b3 69 46 3c 56 6d a5 bd
       -0.065468326 -0.010119371 0.012110162 -0.08077495
0002b0 b9 f6 52 bd 67 c5 11 bd 48 04 9f 3d fd 3e 07 3e
       -0.051504824 -0.03558865 0.077644885 0.13207622
0002c0 3d 93 1f 3d 48 f1 0d 3e 22 f7 70 bc 9d de 41 bd
       0.038958777 0.13861573 -0.014707359 -0.04733144
0002d0 7f 39 ba bd fd 61 63 bd c9 15 7d 3d 4a f1 8d 3d
       -0.09092998 -0.05551337 0.061788354 0.06930788
0002e0 d7 66 c1 bc e9 d7 e2 bd 9e 70 a3 bd 64 c0 4f 3d
       -0.023608608 -0.11076338 -0.079804644 0.050720587
0002f0 39 36 9e bd 5d 7e d3 3d d4 f8 18 bb 97 34 07 3e
       -0.07725186 0.10326836 -0.0023341672 0.13203655
000300 da f5 3a 3d 37 c5 ff 3d 22 9e eb bd b9 aa 72 3d
       0.04564462 0.124887876 -0.11504771 0.059244845
000310 9b 7c 93 bd 5e df 15 be cc e9 05 3e e5 ac 03 be
       -0.07201501 -0.14635989 0.13077468 -0.12858923
000320 e3 b9 b7 bc 13 89 11 bd 66 ec 83 3d 0e f8 04 3d
       -0.022427505 -0.035531115 0.06441574 0.032463126
000330 0d 7d aa bd c5 15 b4 3d 11 a3 82 3d f2 42 17 bc
       -0.08324633 0.08793215 0.06378759 -0.00923227
000340 ff 32 64 bd f3 10 10 3e f8 85 00 be ef ea 85 bd
       -0.055712696 0.14068966 -0.12551105 -0.06538951
000350 b4 3f eb bd 68 b9 c6 3d ee e8 cb bd 59 0c 5f 3d
       -0.1148676 0.09703332 -0.09956537 0.054455135
000360 41 f2 a2 3d fb be a9 3d 71 84 ee bd b2 c8 14 3d
       0.079563625 0.0828838 -0.11646355 0.03632421
000370 c1 ab 04 be 5a 73 c3 bd 46 3e cf bd 17 b3 d7 bc
       -0.12956144 -0.09543486 -0.101192996 -0.026330514
000380 00 f1 e6 bc bf f5 56 bd 5d eb 03 be 48 64 a4 3d
       -0.02819109 -0.052480455 -0.12882753 0.0802694
000390 f6 3c 00 be 30 bd ba 3d a0 09 99 bd ee e8 89 3d
       -0.12523255 0.09118116 -0.07472539 0.06733881
0003a0 0c 23 e3 bd 9a 5a ed 3d e3 55 92 bd 5f 12 1b 3d
       -0.11090669 0.115895465 -0.07145288 0.037859317
0003b0 a6 c6 32 3b 9b f9 c4 bd c0 8f 47 3c 83 7f 4e bd
       0.0027279048 -0.09617921 0.012180269 -0.050414573
0003c0 d1 05 b6 bd 65 5b b4 3d 92 81 79 3d 25 3c 1d 3d
       -0.08887828 0.088064946 0.060914584 0.038387436
0003d0 9a 61 c6 bd 3f 5d da 3c d3 97 03 3e 12 34 b8 3d
       -0.09686585 0.026655791 0.12850885 0.089943066
0003e0 42 b6 f9 bd cb 68 05 3e c5 24 cf 3d a0 ae c0 3d
       -0.12192966 0.13028257 0.10114435 0.09408307
0003f0 51 d6 72 3d fb 82 b4 bd 6a 4c dc 3a 72 ef 3f 3d
       0.05928642 -0.08814045 0.0016807441 0.046859212
